data.pth (torch, 4991 bytes, 6 tensors)

l1.weight f4 [8, 54]
0	0xbdec70bf	-0.11544942
1	0xbec1e36d	-0.37868825
2	0x3efb3f87	0.49071905
3	0xbe26363d	-0.16231628
4	0x3ed1325f	0.40858743
5	0xbd109f5a	-0.03530822
6	0x3eb5ff86	0.3554651
7	0x3eab6f10	0.3348317
8	0x3f0285d3	0.5098545
9	0x3eaab18a	0.33338577
10	0xbdac7397	-0.084204845
11	0x3e0acb0a	0.13554016
12	0x3f05fb29	0.52336365
13	0x3ef7ff85	0.48437133
14	0xbc5a1059	-0.013309562
15	0x3e6184e6	0.22023353
16	0x3d618cc2	0.055065878
17	0x3cd48941	0.025944354
18	0x3e625bd1	0.22105338
19	0xbdea7362	-0.11447789
20	0xbe2cdcda	-0.16881123
21	0xbd959e6c	-0.07305607
22	0x3c896654	0.016772427
23	0xbeb4df1d	-0.35326472
24	0x3f0dc19e	0.5537356
25	0xbe7e459b	-0.2483124
26	0x3f057269	0.521277
27	0xbe9b8a11	-0.30378774
28	0x3ead5017	0.33850166
29	0xbeb24847	-0.34820768
30	0xbd9c0bba	-0.07619424
31	0x3edf480f	0.43609664
32	0x3d9f4782	0.07777311
33	0x3ee53b77	0.4477193
34	0xbe2d4d14	-0.16923934
35	0x3db25b9b	0.087088786
36	0x3eced41a	0.40396196
37	0x3f1edbce	0.62054145
38	0x3e7ccf35	0.24688418
39	0x3ebd4cff	0.36972806
40	0x3d6dacc6	0.058026098
41	0x3ec59bee	0.38595527
42	0x3e61c0d6	0.22046217
43	0xbd9fd6f0	-0.07804668
44	0x3f104e6b	0.56369656
45	0xbdbc96fa	-0.09208484
46	0xbedb3f07	-0.42821524
47	0xbd9d71ca	-0.07687719
48	0x3e416d67	0.1888939
49	0x3f17fb4d	0.5936783
50	0x3e8db636	0.27678078
51	0x3e9be148	0.30445313
52	0x3ecf6c6a	0.405124
53	0x3e472bca	0.19450298
54	0x3f91d83e	1.1394117
55	0xbeefc867	-0.46832582
56	0x3f0bab8d	0.5455864
57	0x3df162d7	0.1178643
58	0xbd41a5f1	-0.047277395
59	0x3f8a7aac	1.0818686
60	0x3e6c2508	0.23061001
61	0x3ea95f45	0.33080497
62	0x3ef319aa	0.47480518
63	0x3ec59413	0.38589534
64	0x3d9135f7	0.07090371
65	0x3f1f3e5f	0.62204546
66	0x3cf26dbf	0.029593347
67	0x3f2642a7	0.64945453
68	0xbeae5889	-0.34051922
69	0x3f0e46c8	0.55576754
70	0xbd181f52	-0.037139244
71	0x3f90d738	1.131568
72	0xbc83674c	-0.016040467
73	0xbe812f90	-0.252316
74	0x3f397c2a	0.72455084
75	0xbecfa3a0	-0.40554523
76	0xbec40929	-0.3828824
77	0x3e1f4a4b	0.15555684
78	0x3ef7a6ec	0.4836954
79	0x3e637b7c	0.22215074
80	0xbd8dd9a4	-0.06926277
81	0xbefcc58d	-0.4936947
82	0xbe11a80e	-0.14224264
83	0xbefeeefe	-0.49791712
84	0x3f47ee45	0.78097945
85	0x3f190db3	0.5978653
86	0x3f4a82cc	0.7910583
87	0x3f228ad8	0.6349311
88	0xbe85a25c	-0.26100433
89	0x3ee7f824	0.45306504
90	0xbe8ce666	-0.2751953
91	0x3ede2701	0.43389133
92	0x3ecf3dbd	0.4047679
93	0x3eaaa6fe	0.3333053
94	0x3f45a7b3	0.77209014
95	0xbe6dc438	-0.23219383
96	0x3ee549a1	0.44782737
97	0xbeafde11	-0.3434911
98	0x3f210dae	0.629115
99	0xbe57f085	-0.21087845
100	0x3fb3b277	1.4038838
101	0x3f6f6336	0.9351076
102	0xbd30021e	-0.04297077
103	0xbebed1d6	-0.37269467
104	0x3ed4cb11	0.41561177
105	0xbe0d05b3	-0.13771705
106	0x3eda54d8	0.42642856
107	0x3e96a263	0.29420766
108	0xbd8b4f47	-0.0680223
109	0x3f07e4a5	0.5308326
110	0xbe96669a	-0.29375154
111	0xbe6af3b4	-0.22944528
112	0x3d1fc154	0.03900273
113	0xbe8644a6	-0.2622425
114	0xbdf2e1b0	-0.11859453
115	0xbe43a0b2	-0.19104269
116	0xbdca738b	-0.09885319
117	0xbe2f1b0e	-0.17100164
118	0x3ddcbc97	0.10778158
119	0xbde6b92e	-0.11265789
120	0x3ed92257	0.42409012
121	0x3d684c44	0.056713358
122	0x3e8481fd	0.25880423
123	0xbe1a78ad	-0.15085097
124	0x3d1daa3e	0.038492434
125	0xbe864a38	-0.262285
126	0x3ec4a621	0.38407996
127	0x3cfd9ead	0.030959452
128	0xbe0849aa	-0.1330935
129	0x3d3de107	0.04635718
130	0x3e082679	0.13295926
131	0xbdabd533	-0.08390274
132	0xbdf8ce92	-0.12148775
133	0xbe6b0779	-0.2295207
134	0x3f09b9b0	0.5379896
135	0x3f1576c0	0.58384323
136	0x3e4f22a7	0.20228063
137	0x3f09fb53	0.53899115
138	0xbea212da	-0.31655008
139	0xbdd32bc8	-0.10311085
140	0xbdd1f393	-0.10251536
141	0xbdd9e65e	-0.10639642
142	0x3f01eef4	0.5075524
143	0xbe585dd3	-0.21129541
144	0x3e8029da	0.2503193
145	0x3cbdea4d	0.023183012
146	0xbca1a8f4	-0.019733883
147	0x3d63b118	0.05558881
148	0xbe9feef0	-0.31236982
149	0x3eadb647	0.3392813
150	0xbdf3ca7a	-0.11903854
151	0x3ea14742	0.31499678
152	0xbe07c42e	-0.1325843
153	0x3ea5a16f	0.32349727
154	0xbf2103ca	-0.62896407
155	0xbd7f4c87	-0.06232884
156	0x3e964e46	0.29356593
157	0x3f0db2cf	0.55350965
158	0xbdb8ea97	-0.090291195
159	0x3f02f19d	0.5114992
160	0xbdc52750	-0.09626639
161	0x3ebbdcf9	0.36692026
162	0x3f57b715	0.84263736
163	0x3e8540ee	0.260261
164	0xbee16fcd	-0.4403061
165	0x3e88c393	0.2671171
166	0x3d160f30	0.036635578
167	0x3f27cd80	0.65547943
168	0xbe5373d5	-0.20649655
169	0xbe101ccb	-0.14073484
170	0xbf2dfb7c	-0.6796186
171	0xbe951eb1	-0.29124978
172	0x3f074791	0.52843577
173	0xbe16fdec	-0.14745301
174	0xbf0f3c27	-0.5595116
175	0xbedc5e35	-0.43040624
176	0xbda5a710	-0.08088505
177	0x3e2d5c3e	0.16929719
178	0x3ec21811	0.37908986
179	0x3f3e4ed3	0.74339026
180	0xbe5d0234	-0.21582872
181	0x3ef46022	0.47729594
182	0x3f48184c	0.78162074
183	0x3eefcf61	0.46837905
184	0x3f145e76	0.57956636
185	0x3ed85392	0.4225126
186	0xbec21be2	-0.37911898
187	0x3e6f4617	0.23366581
188	0xbed97e14	-0.42479002
189	0x3ca2af4e	0.019858982
190	0xbe195a72	-0.14975908
191	0x3d6cfb3a	0.057856776
192	0x3f017d12	0.5058147
193	0xbe927794	-0.28606856
194	0x3f2f78d2	0.6854373
195	0xbedc3b69	-0.43014076
196	0xbe0b12e7	-0.1358143
197	0x3e67d0a2	0.22638181
198	0xbe70f638	-0.23531425
199	0xbf115983	-0.5677721
200	0xbe731863	-0.23739772
201	0xbe18d974	-0.14926702
202	0x3f29e11e	0.66359127
203	0xbed692d3	-0.41908893
204	0xbe445f8f	-0.19177078
205	0xbd63b1a3	-0.05558933
206	0xbee053be	-0.4381389
207	0xbe890e56	-0.2676875
208	0x3fbcdb2f	1.475439
209	0x3f42d140	0.7610054
210	0x3dc9c38c	0.09851751
211	0xbee6dbbb	-0.45089516
212	0x3e83d16a	0.25745708
213	0xbe6b8f6c	-0.2300393
214	0xbe1cf189	-0.15326513
215	0x3e9bcf59	0.3043163
216	0xbe4e7dae	-0.2016513
217	0xbde843a7	-0.11341029
218	0x3f0a15f8	0.5393977
219	0xbe8edea7	-0.27904245
220	0x3c00ee74	0.007869352
221	0x3f729c39	0.94769627
222	0x3f143b20	0.5790272
223	0x3ebafcd3	0.36521015
224	0x3f23fcc3	0.6405756
225	0x3ecd6369	0.40114906
226	0xbe57e58d	-0.2108366
227	0x3f36895e	0.71303356
228	0x3e4e747b	0.20161621
229	0x3f1c9eb5	0.6117967
230	0xbdac4639	-0.084118314
231	0x3f0c6429	0.5484033
232	0xbebca032	-0.3684097
233	0x3f722f4d	0.94603425
234	0xbcea5298	-0.028603837
235	0xbf14448a	-0.5791708
236	0xbe3b1151	-0.18268324
237	0xbf1448cd	-0.57923585
238	0xbf1449dd	-0.57925206
239	0xbea2dc59	-0.31808737
240	0x3f0413b3	0.5159256
241	0xbe1ddd68	-0.15416491
242	0xbe3caf3a	-0.18426219
243	0xbdab4a39	-0.08363766
244	0x3cebca64	0.02878303
245	0xbec7494a	-0.38923103
246	0x3f1600ad	0.5859478
247	0x3f187013	0.5954601
248	0xbdb4f24f	-0.08835279
249	0x3f01c024	0.5068381
250	0xbdb662fb	-0.08905598
251	0x3ea6dd84	0.32590878
252	0x3cf10081	0.029419186
253	0x3f251e69	0.6449953
254	0x3ef2b46a	0.4740327
255	0x3ed1f4e2	0.41007143

l1.bias f4 [8]
0	0x3ea416d8	0.32048678
1	0x3f926243	1.1436237
2	0x3e8635bc	0.2621287
3	0x3f900f0c	1.1254592
4	0x3f144d47	0.57930416
5	0x3e9e2b5b	0.30892453
6	0x3f35934d	0.7092789
7	0x3f5960f8	0.8491359

l2.weight f4 [8, 8]
0	0x3f283faa	0.65722144
1	0x3d54b6ca	0.051932134
2	0x3ecbfccd	0.3984131
3	0xbf170bef	-0.59002584
4	0xbcc5e30a	-0.024156112
5	0xbf8d9c07	-1.1063241
6	0x3fabfe0b	1.3436903
7	0x3fa5254e	1.290201
8	0xbf81d361	-1.0142633
9	0x3f756bb1	0.9586745
10	0xbf8b49d1	-1.0881902
11	0x3fdb037e	1.7110441
12	0xbea08f85	-0.31359497
13	0xbe302a27	-0.1720358
14	0x3f35683b	0.7086217
15	0x3f2d5921	0.67714125
16	0x3f979a3d	1.1843945
17	0x3fc66a1f	1.5501136
18	0xbf220cef	-0.63300985
19	0xbe0d9b6e	-0.13828823
20	0x3fcf74bc	1.62075
21	0x3f81752b	1.0113882
22	0xbf7502d0	-0.95707417
23	0xbdc82420	-0.09772515
24	0x3da183d8	0.07886475
25	0xbe81e819	-0.2537239
26	0xbe6b257b	-0.22963516
27	0x3b1bf980	0.0023799837
28	0xbe05c08a	-0.13061729
29	0x3db11384	0.086463004
30	0xbeb1512b	-0.3463224
31	0xbdc82d34	-0.09774247
32	0xbe8e9184	-0.27845395
33	0xbdd660a4	-0.104676515
34	0x3e519148	0.20465577
35	0xbeb96b2d	-0.3621458
36	0x3de7fbf9	0.11327357
37	0x3d46af9d	0.04850732
38	0x3d46ca38	0.048532695
39	0x3da6bec1	0.08141852
40	0x3f0d09bc	0.5509298
41	0x3e482fad	0.19549437
42	0xbdd0c121	-0.101930864
43	0x3f09e580	0.53865814
44	0xbf61a575	-0.8814309
45	0xbf4bf005	-0.79663116
46	0x3fc92962	1.5715754
47	0x3f76ba08	0.9637761
48	0x3e8ef23d	0.27919188
49	0xbeacf096	-0.33777303
50	0xbe66e908	-0.22549832
51	0xbd997440	-0.07492876
52	0xbde0de8e	-0.10979949
53	0x3e127618	0.14302862
54	0x3dd5ff50	0.104490876
55	0xbe964725	-0.29351154
56	0xbe763dfe	-0.24047086
57	0xbe319130	-0.17340541
58	0x3e81d889	0.25360516
59	0xbea7d725	-0.3278133
60	0xbdb8c7c5	-0.09022478
61	0xbd8223ce	-0.063544855
62	0xbece87dc	-0.40338027
63	0xbe89aca3	-0.26889524

l2.bias f4 [8]
0	0x3ecbbd7d	0.39793006
1	0x3f4ef9e8	0.80850077
2	0x3eddc8e1	0.4331732
3	0xbeaaa4e4	-0.33328927
4	0xbea15727	-0.31511804
5	0x3e754497	0.23951946
6	0xbea0ea52	-0.31428772
7	0xbe4b8aa5	-0.19877107

l3.weight f4 [7, 8]
0	0x3eef5026	0.46740836
1	0xbeb4316d	-0.3519396
2	0x3e29ce95	0.16582711
3	0x3e95e8d1	0.29279187
4	0xbcf15c98	-0.029463097
5	0xbf0ed51d	-0.55793935
6	0x3e8cb741	0.27483562
7	0xbd87bf54	-0.0662829
8	0xbef5b8b5	-0.47992483
9	0xbeeeb672	-0.4662357
10	0xbf74eaca	-0.9567076
11	0x3e9c9567	0.30582735
12	0x3e001f81	0.12512018
13	0xbf6687ae	-0.9005078
14	0xbe8ea534	-0.27860415
15	0xbe7f22ba	-0.24915591
16	0xbf770e5a	-0.96506274
17	0x3f04b2c9	0.51835304
18	0x3efe63b5	0.49685445
19	0xbd9aadf4	-0.0755271
20	0xbeb3c32b	-0.3510984
21	0xc00ab330	-2.1671867
22	0x3e227722	0.15865758
23	0x3e23daae	0.16001388
24	0x3ea647ba	0.32476598
25	0x3f0864b3	0.53278655
26	0xbfda31af	-1.7046412
27	0xbe896915	-0.26837984
28	0x3e2e186a	0.170015
29	0x3efe6c37	0.49691936
30	0x3ea32287	0.3186228
31	0xbdadd055	-0.08487002
32	0x3f4b37f7	0.7938227
33	0xbfaa9d06	-1.332917
34	0xbf867500	-1.0504456
35	0xbcafefb0	-0.021476597
36	0xbe814da6	-0.25254554
37	0x3f550dd1	0.8322421
38	0x3ea6a6ad	0.3254904
39	0xbe00f047	-0.12591659
40	0xbf4ec099	-0.8076263
41	0xbfb99fa0	-1.4501839
42	0x3f8639f4	1.0486436
43	0x3e1580f4	0.14599973
44	0x3e57f771	0.21090485
45	0xbfa2943c	-1.2701488
46	0x3e5fd66e	0.21859142
47	0xbb8dd766	-0.004328656
48	0xbf9517e1	-1.1647912
49	0x3f6b4614	0.91903806
50	0xbf0c1137	-0.5471377
51	0xbe3b37a4	-0.18282944
52	0xbe33eb76	-0.1757029
53	0xbe3c7b3b	-0.18406384
54	0x3e898acf	0.26863715
55	0x3d7611f9	0.060075734

l3.bias f4 [7]
0	0xbf8a00e3	-1.0781521
1	0x400386e1	2.0551074
2	0xbf1dcbbb	-0.61638993
3	0xbf388634	-0.7207978
4	0xbf6ebd1c	-0.9325731
5	0xbf2a4cc2	-0.66523373
6	0xbf0826a5	-0.53183967
